Running experiment on device: cpu
Loading target market s1: DATA/s1/train_5core.tsv
Loaded target data!

model_name is : cgc
{'alias': 'cgc', 'batch_size': 2000, 'optimizer': 'adam', 'adam_lr': 0.005, 'latent_dim': 8, 'num_negative': 19, 'l2_regularization': 1e-07, 'use_cuda': False, 'device_id': 0, 'embedding_user': None, 'embedding_item': None, 'save_trained': True, 'num_users': 6467, 'num_items': 10037, 'num_tasks': 2, 'num_shared_experts': 3, 'hidden_units': [32, 16, 8]}
Model is CGC!
CGC(
  (loss_func): CrossEntropyLoss()
  (embedding_user): Embedding(6467, 8)
  (embedding_item): Embedding(10037, 8)
  (umlps1): ModuleList(
    (0): Sequential(
      (u_fc1): Linear(in_features=8, out_features=32, bias=True)
      (u_bn1): BatchNorm1d(32, eps=1e-05, momentum=0.1, affine=True, track_running_stats=True)
      (u_relu1): ReLU()
    )
    (1): Sequential(
      (u_fc1): Linear(in_features=8, out_features=32, bias=True)
      (u_bn1): BatchNorm1d(32, eps=1e-05, momentum=0.1, affine=True, track_running_stats=True)
      (u_relu1): ReLU()
    )
    (2): Sequential(
      (u_fc1): Linear(in_features=8, out_features=32, bias=True)
      (u_bn1): BatchNorm1d(32, eps=1e-05, momentum=0.1, affine=True, track_running_stats=True)
      (u_relu1): ReLU()
    )
  )
  (umlps2): ModuleList(
    (0): Sequential(
      (u_fc2): Linear(in_features=32, out_features=16, bias=True)
      (u_bn2): BatchNorm1d(16, eps=1e-05, momentum=0.1, affine=True, track_running_stats=True)
      (u_relu2): ReLU()
    )
    (1): Sequential(
      (u_fc2): Linear(in_features=32, out_features=16, bias=True)
      (u_bn2): BatchNorm1d(16, eps=1e-05, momentum=0.1, affine=True, track_running_stats=True)
      (u_relu2): ReLU()
    )
    (2): Sequential(
      (u_fc2): Linear(in_features=32, out_features=16, bias=True)
      (u_bn2): BatchNorm1d(16, eps=1e-05, momentum=0.1, affine=True, track_running_stats=True)
      (u_relu2): ReLU()
    )
  )
  (umlp1): ModuleList(
    (0): Sequential(
      (u_fc1): Linear(in_features=8, out_features=32, bias=True)
      (u_bn1): BatchNorm1d(32, eps=1e-05, momentum=0.1, affine=True, track_running_stats=True)
      (u_relu1): ReLU()
    )
    (1): Sequential(
      (u_fc1): Linear(in_features=8, out_features=32, bias=True)
      (u_bn1): BatchNorm1d(32, eps=1e-05, momentum=0.1, affine=True, track_running_stats=True)
      (u_relu1): ReLU()
    )
  )
  (umlp2): ModuleList(
    (0): Sequential(
      (u_fc2): Linear(in_features=32, out_features=16, bias=True)
      (u_bn2): BatchNorm1d(16, eps=1e-05, momentum=0.1, affine=True, track_running_stats=True)
      (u_relu2): ReLU()
    )
    (1): Sequential(
      (u_fc2): Linear(in_features=32, out_features=16, bias=True)
      (u_bn2): BatchNorm1d(16, eps=1e-05, momentum=0.1, affine=True, track_running_stats=True)
      (u_relu2): ReLU()
    )
  )
  (ugate): ModuleList(
    (0): Sequential(
      (u_gate): Linear(in_features=8, out_features=4, bias=True)
      (u_gate_softmax): Softmax(dim=1)
    )
    (1): Sequential(
      (u_gate): Linear(in_features=8, out_features=4, bias=True)
      (u_gate_softmax): Softmax(dim=1)
    )
  )
  (umlp3): ModuleList(
    (0): Sequential(
      (u_fc3): Linear(in_features=16, out_features=8, bias=True)
      (u_relu3): ReLU()
    )
    (1): Sequential(
      (u_fc3): Linear(in_features=16, out_features=8, bias=True)
      (u_relu3): ReLU()
    )
  )
  (imlps1): ModuleList(
    (0): Sequential(
      (i_fc1): Linear(in_features=8, out_features=32, bias=True)
      (i_bn1): BatchNorm1d(32, eps=1e-05, momentum=0.1, affine=True, track_running_stats=True)
      (i_relu1): ReLU()
    )
    (1): Sequential(
      (i_fc1): Linear(in_features=8, out_features=32, bias=True)
      (i_bn1): BatchNorm1d(32, eps=1e-05, momentum=0.1, affine=True, track_running_stats=True)
      (i_relu1): ReLU()
    )
    (2): Sequential(
      (i_fc1): Linear(in_features=8, out_features=32, bias=True)
      (i_bn1): BatchNorm1d(32, eps=1e-05, momentum=0.1, affine=True, track_running_stats=True)
      (i_relu1): ReLU()
    )
  )
  (imlps2): ModuleList(
    (0): Sequential(
      (i_fc2): Linear(in_features=32, out_features=16, bias=True)
      (i_bn2): BatchNorm1d(16, eps=1e-05, momentum=0.1, affine=True, track_running_stats=True)
      (i_relu2): ReLU()
    )
    (1): Sequential(
      (i_fc2): Linear(in_features=32, out_features=16, bias=True)
      (i_bn2): BatchNorm1d(16, eps=1e-05, momentum=0.1, affine=True, track_running_stats=True)
      (i_relu2): ReLU()
    )
    (2): Sequential(
      (i_fc2): Linear(in_features=32, out_features=16, bias=True)
      (i_bn2): BatchNorm1d(16, eps=1e-05, momentum=0.1, affine=True, track_running_stats=True)
      (i_relu2): ReLU()
    )
  )
  (imlp1): ModuleList(
    (0): Sequential(
      (i_fc1): Linear(in_features=8, out_features=32, bias=True)
      (i_bn1): BatchNorm1d(32, eps=1e-05, momentum=0.1, affine=True, track_running_stats=True)
      (i_relu1): ReLU()
    )
    (1): Sequential(
      (i_fc1): Linear(in_features=8, out_features=32, bias=True)
      (i_bn1): BatchNorm1d(32, eps=1e-05, momentum=0.1, affine=True, track_running_stats=True)
      (i_relu1): ReLU()
    )
  )
  (imlp2): ModuleList(
    (0): Sequential(
      (i_fc2): Linear(in_features=32, out_features=16, bias=True)
      (i_bn2): BatchNorm1d(16, eps=1e-05, momentum=0.1, affine=True, track_running_stats=True)
      (i_relu2): ReLU()
    )
    (1): Sequential(
      (i_fc2): Linear(in_features=32, out_features=16, bias=True)
      (i_bn2): BatchNorm1d(16, eps=1e-05, momentum=0.1, affine=True, track_running_stats=True)
      (i_relu2): ReLU()
    )
  )
  (igate): ModuleList(
    (0): Sequential(
      (i_gate): Linear(in_features=8, out_features=4, bias=True)
      (i_gate_softmax): Softmax(dim=1)
    )
    (1): Sequential(
      (i_gate): Linear(in_features=8, out_features=4, bias=True)
      (i_gate_softmax): Softmax(dim=1)
    )
  )
  (imlp3): ModuleList(
    (0): Sequential(
      (i_fc3): Linear(in_features=16, out_features=8, bias=True)
      (i_relu3): ReLU()
    )
    (1): Sequential(
      (i_fc3): Linear(in_features=16, out_features=8, bias=True)
      (i_relu3): ReLU()
    )
  )
  (softmax): Softmax(dim=1)
)
Epoch 0 starts !
--------------------------------------------------------------------------------
Epoch 1 starts !
--------------------------------------------------------------------------------
Epoch 2 starts !
--------------------------------------------------------------------------------
…
