…
d with your version of the CUDA driver. (Triggered internally at  ../c10/cuda/CUDAFunctions.cpp:115.)
  return torch._C._cuda_getDeviceCount() > 0
Device: cpu
{'alias': 'sb', 'batch_size': 5000, 'optimizer': 'adam', 'adam_lr': 0.005, 'latent_dim': 8, 'num_negative': 19, 'l2_regularization': 1e-07, 'use_cuda': False, 'device_id': 0, 'embedding_user': None, 'embedding_item': None, 'save_trained': True, 'num_users': 3329, 'num_items': 1269, 'num_tasks': 2, 'num_shared_experts': 3, 'hidden_units': [32, 16, 8]}
Model is SharedBottom!
SharedBottom(
  (loss_func): CrossEntropyLoss()
  (embedding_user): Embedding(3329, 8)
  (embedding_item): Embedding(1269, 8)
  (umlp1): Sequential(
    (u_fc1): Linear(in_features=8, out_features=32, bias=True)
    (u_bn1): BatchNorm1d(32, eps=1e-05, momentum=0.1, affine=True, track_running_stats=True)
    (u_relu1): ReLU()
  )
  (umlp2): Sequential(
    (u_fc2): Linear(in_features=32, out_features=16, bias=True)
    (u_bn2): BatchNorm1d(16, eps=1e-05, momentum=0.1, affine=True, track_running_stats=True)
    (u_relu2): ReLU()
  )
  (umlp3): ModuleList(
    (0): Sequential(
      (u_fc3): Linear(in_features=16, out_features=8, bias=True)
      (u_relu3): ReLU()
    )
    (1): Sequential(
      (u_fc3): Linear(in_features=16, out_features=8, bias=True)
      (u_relu3): ReLU()
    )
  )
  (imlp1): Sequential(
    (i_fc1): Linear(in_features=8, out_features=32, bias=True)
    (i_bn1): BatchNorm1d(32, eps=1e-05, momentum=0.1, affine=True, track_running_stats=True)
    (i_relu1): ReLU()
  )
  (imlp2): Sequential(
    (i_fc2): Linear(in_features=32, out_features=16, bias=True)
    (i_bn2): BatchNorm1d(16, eps=1e-05, momentum=0.1, affine=True, track_running_stats=True)
    (i_relu2): ReLU()
  )
  (imlp3): ModuleList(
    (0): Sequential(
      (i_fc3): Linear(in_features=16, out_features=8, bias=True)
      (i_relu3): ReLU()
    )
    (1): Sequential(
      (i_fc3): Linear(in_features=16, out_features=8, bias=True)
      (i_relu3): ReLU()
    )
  )
  (softmax): Softmax(dim=1)
)
Pretrained weights from checkpoints/s3_none_toytest_sb.model are loaded!
Loaded target data!

Validation output:
{'P_5': 0.10090144230769231, 'P_10': 0.058653846153846154, 'P_20': 0.03368389423076923, 'recall_5': 0.5045072115384616, 'recall_10': 0.5865384615384616, 'recall_20': 0.6736778846153846, 'ndcg_cut_10': 0.4475553207344086, 'map_cut_10': 0.40446929372710616}
…
